model/keypoint_classifier/keypoint_classifier.tflite (tflite, 6496 bytes, 6 tensors)

dense_2/bias f4 [6]
-0.059792902 -0.5655304 0.31943297 -0.33325464 1.2297662 0.112970896
00000000: 67e9 74bd 9ac6 10bf b88c a33e 5aa0 aabe
00000010: fb68 9d3f 495d e73d

dense_1/bias f4 [10]
0.0055073746 0.1087323 0.0036974738 0.6930523 0.18088356 0.37514433 0.022716397 0.8209842
0.29349515 0.42030886
00000000: 3577 b43b 0aaf de3d 5151 723b e06b 313f
00000010: 8a39 393e eb12 c03e bd17 ba3c 052c 523f
00000020: ff44 963e b932 d73e

dense/bias f4 [20]
-0.6079985 -0.68106246 -0.63387674 -0.74892104 -0.4332257 -0.4114763 -0.93532705 0.61962074
-0.55298644 -0.4674182 0.53919995 -1.0271144 -1.0593492 -0.4640815 -0.93669635 0.42500806
-0.62067443 -1.005556 -0.4680315 -0.28122458
00000000: caa5 1bbf 1c5a 2ebf bf45 22bf 4ab9 3fbf
00000010: c2cf ddbe 06ad d2be 9871 6fbf 779f 1e3f
00000020: 8590 0dbf 7051 efbe 0209 0a3f 7c78 83bf
00000030: c198 87bf 179c edbe 55cb 6fbf a89a d93e
00000040: 85e4 1ebf 0fb6 80bf d3a1 efbe abfc 8fbe

sequential/dense/MatMul f4 [20, 42]
-0.022858173 -0.23219702 1.1698631 -1.5902961 0.7545053 -0.9400959 0.5436847 -0.5652193
0.41866928 -0.664252 0.6495189 -0.26170167 0.3846615 -0.052916046 -0.0017232806 0.15489455
-0.21431069 0.26232132 0.33481935 -0.25168404 0.30188793 -0.07528482 -0.23805207 0.09166036
-0.40171537 0.13911052 -0.08360706 -0.080229856 0.12033759 -0.14745203 0.31466565 -0.12007616
0.3788592 -0.21437718 -0.19335955 0.0259547 0.1755613 0.0031169022 0.027852565 0.11355787
-0.015666189 0.07392978 -0.17281944 0.17357752 -0.14208877 0.07487408 -0.11536521 -0.09128213
0.13117035 -0.34679678 0.2720889 -0.17475587 -0.6167994 -0.21003045 -0.17534769 -0.20453866
-0.024228131 -0.067095205 0.02288995 -0.013092803 -0.67698634 -0.2548798 0.06428884 0.056759454
0.24420787 0.3433857 0.2501187 0.36770543 -0.900223 -0.27431712 -0.021329397 -0.033898227
0.19732961 0.19896205 0.13274486 0.24453583 -0.36172217 -0.45645797 0.083539754 -0.3612567
0.22452722 -0.122107245 0.2111946 -0.06520336 0.1378023 -0.06240639 0.5222511 -0.52655727
0.12427837 -0.19040672 0.10680091 -0.18096039 0.025556097 0.06678768 0.81263113 -0.26444003
0.22061387 -0.11092119 -0.06455831 0.016444964 -0.13113101 0.06269185 0.9803439 -0.38692418
-0.06557464 0.057852387 -0.4803518 0.2183219 -0.41708764 0.21133527 1.012276 -0.5522731
-0.01783614 0.04631763 -0.25933057 0.13474509 -0.1352448 0.09691413 0.793104 -0.49234357
0.19155881 -0.028363762 -0.1287345 0.10154406 -0.016449139 0.054291714 0.05760932 -0.16926424
-0.10986313 0.7542953 0.049101397 0.34283546 0.04482827 0.28696218 0.09375482 0.23026678
-0.050596345 -0.045174856 0.057827406 0.06156931 0.08528551 0.09022925 0.095201574 0.08763389
-0.0025937962 -0.05013692 0.07680727 0.06877131 -0.022226658 0.028587414 -0.1365124 -0.06388555
0.03232817 -0.07294277 0.0056056357 -0.04470071 -0.2762537 -0.6812327 -0.8671529 -0.91623914
0.103940204 -0.10107627 0.06951733 -0.14310418 -0.025752572 -0.57399845 -0.5315681 -0.33166873
0.08650398 -0.14013298 -0.12747857 -0.113782 -0.16653994 -0.29737702 -0.2850428 -0.344315
-0.3951228 -0.3791949 0.012276893 0.32002872 -0.033469915 0.031745687 -0.023168268 -0.08196731
-0.044195373 -0.10469032 -0.050499585 0.33108804 -0.022861999 -0.17898707 0.07455238 0.033876423
0.270183 0.5420046 -0.13134909 0.25315684 0.03544124 -0.17816578 0.3337477 0.25393924
0.28423372 0.8535085 -0.20027244 0.05070901 -0.031228993 -0.28489155 0.1868032 0.17415886
0.46490398 0.6812562 0.097794 -0.31077763 0.037890684 0.1373192 -0.04446756 0.25165346
-0.2510909 0.24120568 -0.43019688 0.22496943 0.17774396 0.2035991 0.07642329 0.08926922
0.007959058 0.060225215 -0.016353589 0.038815618 0.13283752 0.16280705 0.08408008 0.16239749
0.07658793 0.024903182 0.045541152 -0.3881751 0.05794841 0.17589112 0.037373353 0.12096241
0.22618511 -0.32707337 0.3355949 -0.6923686 0.0023069314 0.097248726 -0.046934277 0.06377971
0.019212091 -0.2429903 0.30494365 -1.1096567 0.20983517 0.0071540773 -0.6570494 -0.33551377
00000000: 1041 bbbc 0ec5 6dbe 13be 953f d38e cbbf
00000010: 4227 413f 20aa 70bf ec2e 0b3f 36b2 10bf
00000020: d25b d63e 6b0c 2abf df46 263f c3fd 85be
00000030: 5af2 c43e 7fbe 58bd b4df e1ba ad9c 1e3e
00000040: 4374 5bbe fb4e 863e 716d ab3e bbdc 80be
00000050: 0e91 9a3e ed2e 9abd ecc3 73be 6db8 bb3d
00000060: a3ad cdbe fd72 0e3e 2e3a abbd 8d4f a4bd
00000070: 8e73 f63d aafd 16be db1b a13e 7dea f5bd
00000080: d5f9 c13e b185 5bbe 0c00 46be f39e d43c
00000090: 57c6 333e f144 4c3b 102b e43c 0791 e83d
000000a0: 6156 80bc 7f68 973d 94f7 30be 4ebe 313e
000000b0: b87f 11be 9557 993d 9844 ecbd 20f2 babd
000000c0: 8551 063e 598f b1be 3c4f 8b3e 34f3 32be
000000d0: 91e6 1dbf 3912 57be 588e 33be 9572 51be
000000e0: 137a c6bc 3669 89bd b483 bb3c 3283 56bc
000000f0: fa4e 2dbf 9b7f 82be dea9 833d 9a7c 683d
00000100: a111 7a3e 40d0 af3e 8f0f 803e e343 bc3e
00000110: 0475 66bf 4b73 8cbe fdba aebc ded8 0abd
00000120: c610 4a3e b5bc 4b3e 45ee 073e 9a67 7a3e
00000130: a633 b9be dcb4 e9be e416 ab3d a3f6 b8be
00000140: 77ea 653e 5d13 fabd 6643 583e 5789 85bd
00000150: 0c1c 0d3e d89d 7fbd 40b2 053f 75cc 06bf
00000160: a885 fe3d fbf9 42be 6fba da3d ae4d 39be
00000170: 055b d13c fbc7 883d 9808 503f af64 87be
00000180: 9ae8 613e a62a e3bd 2637 84bd 97b7 863c
00000190: 3547 06be 9664 803d d1f7 7a3f ed1a c6be
000001a0: ff4b 86bd a0f6 6c3d acf0 f5be c78f 5f3e
000001b0: 838c d5be 4668 583e 4392 813f c561 0dbf
000001c0: 191d 92bc 8eb7 3d3d fac6 84be 9efa 093e
000001d0: 9d7d 0abe ea7a c63d dd08 4b3f 7514 fcbe
000001e0: fe27 443e 1f5b e8bc fad2 03be 55f6 cf3d
000001f0: 58c0 86bc fd60 5e3d c0f7 6b3d 9b53 2dbe
00000200: ecff e0bd 7f19 413f 8c1e 493d 2188 af3e
00000210: d99d 373d b5ec 923e 8702 c03d 0ecb 6b3e
00000220: 1d3e 4fbd 4509 39bd 6edc 6c3d 1a30 7c3d
00000230: 2baa ae3d 1dca b83d 0bf9 c23d 6679 b33d
00000240: aefc 29bb 5f5c 4dbd 214d 9d3d f9d7 8c3d
00000250: ae14 b6bc 2730 ea3c e8c9 0bbe 6dd6 82bd
00000260: 8b6a 043d 0563 95bd 7baf b73b 1718 37bd
00000270: 2071 8dbe 4465 2ebf bcfd 5dbf a68e 6abf
00000280: 9ade d43d 1301 cfbd 1a5f 8e3d e789 12be
00000290: 0ff7 d2bc 90f1 12bf d914 08bf 7cd0 a9be
000002a0: 0029 b13d 057f 0fbe be89 02be 8a06 e9bd
000002b0: 7289 2abe cd41 98be 21f1 91be 0e4a b0be
000002c0: 894d cabe d525 c2be 0525 493c ceda a33e
000002d0: c017 09bd c407 023d 61cb bdbc 7ade a7bd
000002e0: 3506 35bd e167 d6bd a7d8 4ebd 5f84 a93e
000002f0: 1649 bbbc 6348 37be ebae 983d 01c2 0a3d
00000300: 6d55 8a3e d0c0 0a3f 6080 06be c69d 813e
00000310: d52a 113d 1771 36be fbe0 aa3e 5304 823e
00000320: 1587 913e 887f 5a3f 3814 4dbe 40b4 4f3d
00000330: f2d3 ffbc 4edd 91be 5749 3f3e b356 323e
00000340: e507 ee3e ce66 2e3f 3848 c83d 3f1e 9fbe
00000350: 4333 1b3d 689d 0c3e 9e23 36bd b9d8 803e
00000360: fd8e 80be 9ffe 763e c442 dcbe 635e 663e
00000370: 8302 363e 487c 503e d083 9c3d c8d2 b63d
00000380: b566 023c b7ae 763d f6f7 85bc 20fd 1e3d
00000390: 8f06 083e e4b6 263e 2d32 ac3d 874b 263e
000003a0: 22da 9c3d c201 cc3c 5c89 3a3d e3be c6be
000003b0: 505b 6d3d cd1c 343e cd14 193d 24bb f73d
000003c0: 129d 673e 2976 a7be 18d3 ab3e 123f 31bf
000003d0: e32f 173b 572a c73d 283e 40bd f09e 823d
000003e0: ad62 9d3c 73d2 78be 9321 9c3e 3b09 8ebf
000003f0: 08df 563e c06c ea3b 6434 28bf 76c8 abbe

sequential/dense_1/MatMul f4 [10, 20]
1.059426 0.07743157 0.8342907 0.05308809 1.2626649 -0.07774382 0.29672137 0.57249475
1.6097949 -0.005285815 0.7778073 0.15958871 1.5488056 0.10717209 1.3545347 0.76904166
1.3830333 1.2377554 0.4624147 1.2087511 -0.6192737 0.12342709 0.6376765 0.1962653
0.3001532 0.03616578 1.0497954 0.05491973 0.047178917 -0.19714406 0.3081709 1.127186
1.7471365 0.09589439 0.80442697 0.4271577 0.10177514 0.2937833 0.4787217 0.56605715
0.17566098 -0.4042435 0.087401904 -0.5517409 -0.43879357 -0.7219755 0.27866334 0.5109535
-0.6516563 0.5933134 -0.84308857 0.07590857 -0.65191877 -0.26151648 0.1941771 -0.28509492
-0.47403955 0.04426292 0.24566908 -0.26831582 -0.45898613 -0.035288736 -0.25044063 -0.9667151
-0.25785357 -0.8173016 -0.030564865 -0.34746101 -0.64562017 -1.6917505 0.12151364 -0.38774216
-0.8380059 0.010745313 -0.57031935 0.15696026 0.30169833 -0.57560474 -0.79027915 -0.5640693
0.14923629 0.6818931 -0.14874722 0.24474224 0.06499792 0.24920934 0.23596941 0.0029421048
-0.091912255 0.34684235 -0.012785094 0.5269703 0.624541 -1.3724755 0.27916038 -0.27953517
-0.08668573 -1.4661406 0.16589516 0.08543502 0.2901856 1.2121226 0.2572578 0.006935598
-0.055705752 0.027080365 -0.22088003 -0.031931233 -0.013791525 0.1666103 0.15955389 -0.01944698
1.1628145 1.1179997 1.0113893 0.089909315 -0.14580777 0.27032194 -0.12401633 -0.15849492
0.096937306 -0.27904972 -0.054078292 0.79866886 0.8100388 0.7687786 0.5298675 0.11398599
0.8446639 0.72937936 0.4218008 0.08662502 -0.5946117 -0.16910516 -0.39099765 0.45621035
0.79050124 0.31344098 0.7172934 0.6231606 0.094671756 0.33124354 0.6677462 -0.8400613
-0.5453235 -1.3063463 -0.030204253 0.55144954 -0.68266267 -1.8295037 0.5793367 0.08226906
-0.29477516 0.37647855 0.18209812 0.22135253 -0.6756302 0.11451893 -0.96855897 -0.16203503
-0.93438923 0.13882598 -0.581905 0.59674066 -0.17881817 0.09751933 0.6478249 0.15409581
0.2045818 0.71041757 0.086076155 0.4165736 0.7481239 0.45199 0.7876159 -0.2453607
0.5270859 0.34863943 -0.21022704 -0.24824491 -0.003537328 0.11858328 -0.012342344 -1.5130509
0.4171571 -1.0265282 -0.77045155 0.28215438 0.06596309 0.33039135 0.25661525 -0.7032309
-0.79321337 0.19568862 -0.106013834 0.15471981 -0.43473518 -0.087164424 0.69876146 0.176993
00000000: 459b 873f 7194 9e3d 1394 553f e672 593d
00000010: 019f a13f 2738 9fbd ddeb 973e 048f 123f
00000020: c20d ce3f a134 adbb 611e 473f 396b 233e
00000030: 433f c63f 0a7d db3d 6561 ad3f eadf 443f
00000040: 3c07 b13f c56e 9e3f 9fc1 ec3e 5bb8 9a3f
00000050: b988 1ebf 58c7 fc3d c43e 233f c5f9 483e
00000060: aead 993e 9222 143d b25f 863f 83f3 603d
00000070: ae3e 413d 22e0 49be 94c8 9d3e a147 903f
00000080: 2ba2 df3f 4764 c43d edee 4d3f 6ab4 da3e
00000090: 7c6f d03d c46a 963e 031b f53e 1fe9 103f
000000a0: 79e0 333e 01f9 cebe c5ff b23d e43e 0dbf
000000b0: 8da9 e0be 63d3 38bf f6ac 8e3e d9cd 023f
000000c0: f3d2 26bf 63e3 173f a7d4 57bf f475 9b3d
000000d0: 26e4 26bf 7de5 85be 5dd6 463e f6f7 91be
000000e0: 50b5 f2be 094d 353d ad90 7b3e b160 89be
000000f0: 3b00 ebbe ec8a 10bd c139 80be a47a 77bf
00000100: 6205 84be ad3a 51bf 2b63 fabc 69e6 b1be
00000110: 5d47 25bf 488b d8bf 25dc f83d 2486 c6be
00000120: 8e87 56bf 1c0d 303c 7300 12bf 31ba 203e
00000130: 3478 9a3e d55a 13bf bc4f 4abf d866 10bf
00000140: 66d1 183e 8c90 2e3f 3151 18be b69d 7a3e
00000150: a11d 853d bc30 7f3e f7a1 713e 54d0 403b
00000160: 7e3c bcbd 5295 b13e 9278 51bc 87e7 063f
00000170: ebe1 1f3f 47ad afbf 1cee 8e3e 3c1f 8fbe
00000180: 4a88 b1bd 7faa bbbf 6ce0 293e 8ef8 ae3d
00000190: 3593 943e d526 9b3f 4bb7 833e 0344 e33b
000001a0: b72b 64bd a4d7 dd3c 602e 62be 53ca 02bd
000001b0: d9f5 61bc e49b 2a3e 1862 233e 464f 9fbc
000001c0: 1bd7 943f 9d1a 8f3f 3475 813f 6022 b83d
000001d0: a24e 15be a367 8a3e 46fc fdbd 7e4c 22be
000001e0: 1187 c63d 9bdf 8ebe 3381 5dbd 9075 4c3f
000001f0: b45e 4f3f adce 443f 65a5 073f 7d71 e93d
00000200: e53b 583f 9bb8 3a3f 46f6 d73e 7568 b13d
00000210: 7938 18bf e729 2dbe d830 c8be 6794 e93e
00000220: 4a5e 4a3f 567b a03e 8aa0 373f 7487 1f3f
00000230: 44e3 c13d c198 a93e 6af1 2a3f 420e 57bf
00000240: 529a 0bbf 5b36 a7bf e96e f7bc cc2b 0d3f
00000250: fbc2 2ebf 2d2d eabf 694f 143f ae7c a83d
00000260: c5ec 96be ccc1 c03e ee77 3a3e 3daa 623e
00000270: 1af6 2cbf e788 ea3d 7bf3 77bf 83ec 25be
00000280: 2234 6fbf 6628 0e3e baf7 14bf ffc3 183f
00000290: 1c1c 37be 37b8 c73d dad7 253f 4bcb 1d3e
000002a0: e47d 513e eddd 353f b248 b03d 2349 d53e
000002b0: 0c85 3f3f 3c6b e73e 32a1 493f d63f 7bbe
000002c0: 1aef 063f de80 b23e c245 57be ea33 7ebe
000002d0: 84d2 67bb cadb f23d 8b37 4abc a7ab c1bf
000002e0: 9e95 d53e 4765 83bf 503c 45bf 8a76 903e
000002f0: a817 873d 0e29 a93e 1363 833e f106 34bf
00000300: 0810 4bbf 9962 483e c81d d9bd df6e 1e3e
00000310: 9c95 debe 4383 b2bd 08e2 323f a73d 353e

sequential/dense_2/MatMul f4 [6, 10]
0.35955724 -0.11048145 0.02298633 -0.49808952 -0.5124742 -0.79437745 1.0570287 -0.7142643
-0.12784767 0.7777779 0.6978719 1.0179317 -0.6580146 -0.8224919 0.22596195 0.23841329
-0.61264515 -0.10497439 0.29581317 -1.0795419 -0.20235911 0.04582651 0.52029014 0.24323969
-0.33318955 0.19551931 -0.3787448 0.962956 -1.4012938 0.48120537 -1.8258709 0.73619676
0.68429965 -0.20458324 1.376406 -1.856153 0.3838297 -0.83802736 0.20755127 0.06851761
-1.5224191 -2.1112823 -0.77964526 1.5314602 -0.9026649 -0.671792 -1.5233575 0.25538665
-0.9572495 -0.16802646 -2.4274805 -1.6030508 -0.7563977 -1.2495481 0.32420656 1.0020818
-0.47637418 -0.7265916 0.60462147 -0.4725536
00000000: e317 b83e 1944 e2bd d44d bc3c 9705 ffbe
00000010: 8231 03bf 525c 4bbf b74c 873f 06da 36bf
00000020: 80ea 02be 741c 473f bca7 323f 964b 823f
00000030: a573 28bf d48e 52bf 9262 673e 9d22 743e
00000040: 50d6 1cbf d0fc d6bd d374 973e 6e2e 8abf
00000050: 3a37 4fbe 94b4 3b3d bc31 053f d313 793e
00000060: d297 aabe 3736 483e d7ea c1be 4984 763f
00000070: 985d b3bf 8d60 f63e 23b6 e9bf 6477 3c3f
00000080: 432e 2f3f 457e 51be 122e b03f 6c96 edbf
00000090: 5485 c43e f688 56bf 5288 543e f652 8c3d
000000a0: a1de c2bf 401f 07c0 d596 47bf e306 c43f
000000b0: 0c15 67bf 8ffa 2bbf 61fd c2bf 0ac2 823e
000000c0: 4e0e 75bf 210f 2cbe d75b 1bc0 c530 cdbf
000000d0: 48a3 41bf 31f1 9fbf 67fe a53e 3744 803f
000000e0: 51e7 f3be e801 3abf 79c8 1a3f 8cf2 f1be
