model/keypoint_classifier/keypoint_classifier.tflite (tflite, 6640 bytes, 6 tensors)

dense_2/bias f4 [9]
-0.03640036 -0.8463702 0.6795628 -0.80960983 0.9069688 0.17363627 0.5168487 0.23003021
-0.050923415
00000000: 8b18 15bd b8ab 58bf d4f7 2d3f 9742 4fbf
00000010: 1b2f 683f b5cd 313e 3250 043f 0a8d 6b3e
00000020: 1295 50bd

dense_1/bias f4 [10]
1.5694827 0.6995504 0.316564 -0.05535979 0.42452407 0.58270055 0.8973288 -0.36161166
0.5088262 0.8036762
00000000: cfe4 c83f bc15 333f ad14 a23e f2c0 62bd
00000010: 385b d93e dd2b 153f 57b7 653f 2a25 b9be
00000020: 6f42 023f b9bd 4d3f

dense/bias f4 [20]
-1.147052 -0.80506957 0.03260984 -0.9164333 0.15204136 -0.50411516 -0.16917683 -0.44813338
-0.62416387 -1.0901686 -0.12038413 -0.6946084 -0.6898119 -0.7930044 -0.9625897 -0.6937731
-0.30215392 0.7249869 -1.0135722 -0.7161407
00000000: 9ad2 92bf 0a19 4ebf e591 053d 5f9b 6abf
00000010: bbb0 1b3e b10d 01bf b13c 2dbe bd71 e5be
00000020: 34c9 1fbf a58a 8bbf f48b f6bd dbd1 31bf
00000030: 8397 30bf 5602 4bbf 476c 76bf 1d9b 31bf
00000040: ebb3 9abe be98 393f bcbc 81bf ff54 37bf

sequential/dense/MatMul f4 [20, 42]
-0.055740207 -0.20586547 -0.07041811 -0.6945964 -0.0446271 -0.36168253 0.019733485 -0.23638608
0.056784034 -0.10359788 -0.10404122 -0.32392058 0.05656413 -0.2280886 0.136681 0.004022841
0.118211314 0.08413317 0.026556477 -0.42182407 -0.12410509 -0.0833124 -0.08169016 0.104107045
-0.091279015 0.10560293 0.11988977 -0.46671334 -0.055183373 -0.0896959 0.0008780343 0.12577072
0.038433045 0.13158275 0.09852199 -0.7313594 -0.0057410123 -0.095559664 -0.015292698 0.14669172
0.03840718 0.16008516 -0.17308593 0.12292737 0.8455946 2.2580187 0.15740243 0.94072634
-0.010750568 0.36651897 -0.022700049 0.23003812 0.0014994327 0.58818364 0.05714082 0.18120904
0.060371008 -0.060132828 0.05292507 -0.24957775 -0.014394223 0.20488244 -0.049469497 0.044247042
0.0033320608 -0.09705308 0.022058284 -0.116721876 -0.005495513 -0.044673413 -0.1342303 -0.09502453
0.005338085 -0.10551901 -0.08348622 -0.10510585 0.048561636 -0.57369024 -0.083404936 -0.22098546
-0.006043581 -0.17453435 -0.04319735 -0.11901902 0.21188402 -0.19513142 -0.27801087 -2.0165641
-0.0064224964 -1.3509191 -0.04182894 -1.3062875 -0.017757954 -1.2034723 -0.3895985 -0.5811839
-0.13765213 -0.033808395 -0.06898627 0.30338505 0.04323029 0.41738132 -0.45062944 -0.1721974
-0.16723163 0.2026979 -0.0784502 0.43263975 -0.013771402 0.40889755 -0.22322515 0.0358572
0.08619378 0.17419016 0.25301632 0.17814784 0.30856302 0.09429781 0.091355145 0.32531083
0.26833326 0.36819574 0.19262709 0.45972034 0.24934652 0.38351023 0.27052444 -0.26283967
0.18029027 -0.1838161 0.008191778 -0.0709166 0.23507212 -0.08420772 0.28807485 -0.054908607
-0.73136264 -0.5477988 -0.29125357 -0.29035145 -0.23676936 -0.17161423 -0.24601106 -0.13049106
-0.48862222 -0.5820025 0.04928584 0.034869157 0.27149826 0.37477726 0.25737205 0.35420358
-0.19772771 -0.6303641 0.07935642 -0.016575674 0.1810096 0.37653047 0.08490262 0.29063222
0.05558674 -0.86284065 0.15825382 -0.2928785 0.1379328 -0.021843206 0.09271678 0.03192628
0.02455929 0.19545156 0.83662856 -1.150382 0.6713471 -0.5367727 0.57032186 -0.49985316
0.4821694 -0.5209484 0.25752765 -0.19426642 0.3646977 -0.22241442 0.42344588 -0.108617134
0.47213408 0.0021813507 -0.11342062 -0.097516745 -0.13871764 -0.12947708 -0.20657976 -0.1808517
-0.09819377 -0.035939015 -0.34881902 0.024690352 -0.13684472 -0.1283466 0.30004683 -0.11502105
0.4897795 -0.10785309 -0.47803214 0.21801797 -0.39761326 0.20770936 -0.42987567 0.2962767
-0.2745093 0.36846763 -0.20987873 0.0948199 0.23927969 0.54503167 0.07499288 0.17871067
0.088188045 0.22752354 0.17780338 0.2650633 0.0023978322 -0.042638116 0.051298548 0.0072748694
0.053326264 0.05014314 0.037250828 -0.008625702 0.07272082 -0.032663632 0.012111495 0.03531423
-0.12913331 0.036216166 -0.32575396 0.0932738 0.15281256 0.019163342 0.0014083523 0.052628335
-0.28321356 -0.22188744 -0.60576606 -1.4294714 0.23672771 0.04295152 0.06888996 0.08803626
-0.15581416 0.10583931 -0.6366198 -0.008013354 -0.097301304 -0.17584388 -0.15045321 -0.39653268
00000000: d84f 64bd 66ce 52be 5f37 90bd 12d1 31bf
00000010: e8ca 36bd 742e b9be 1ea8 a13c 310f 72be
00000020: 6096 683d 202b d4bd 9013 d5bd ebd8 a5be
00000030: caaf 673d 0f90 69be 1bf6 0b3e 09d2 833b
00000040: c618 f23d 034e ac3d f88c d93c 53f9 d7be
00000050: cf2a febd b19f aabd 2c4d a7bd 1336 d53d
00000060: 7ef0 babd 5946 d83d c588 f53d 0df5 eebe
00000070: f607 62bd 7cb2 b7bd e22b 663a 0aca 003e
00000080: f86b 1d3d a1bd 063e e6c5 c93d 5f3a 3bbf
00000090: 1a1f bcbb c9b4 c3bd 398e 7abc 5b36 163e
000000a0: d950 1d3d 5ded 233e 703d 31be 58c1 fb3d
000000b0: e378 583f 6183 1040 1a2e 213e 71d3 703f
000000c0: 2623 30bc 60a8 bb3e 74f5 b9bc 1d8f 6b3e
000000d0: 9d88 c43a 3493 163f 7e0c 6a3d dd8e 393e
000000e0: 9747 773d d74d 76bd f5c7 583d 4f91 7fbe
000000f0: bfd5 6bbc b4cc 513e 87a0 4abd 633c 353d
00000100: b45e 5a3b c4c3 c6bd 93b3 b43c e10b efbd
00000110: b413 b4bb 78fb 36bd ab73 09be 399c c2bd
00000120: 1aeb ae3b 5a1a d8bd d3fa aabd bc41 d7bd
00000130: 91e8 463d 5ddd 12bf 35d0 aabd 034a 62be
00000140: 3b09 c6bb 22b9 32be b4ef 30bd 3ec0 f3bd
00000150: 20f8 583e 88d0 47be 7157 8ebe 630f 01c0
00000160: ce73 d2bb ebea acbf d354 2bbd 6e34 a7bf
00000170: 2179 91bc 610b 9abf 7479 c7be 78c8 14bf
00000180: aef4 0cbe ac7a 0abd ac48 8dbd 4955 9b3e
00000190: 3f12 313d 01b3 d53e e7b8 e6be 8454 30be
000001a0: c53e 2bbe 0a90 4f3e 80aa a0bd f582 dd3e
000001b0: 72a1 61bc 055b d13e 2295 64be 00df 123d
000001c0: 5d86 b03d e85e 323e 5b8b 813e 636c 363e
000001d0: f9fb 9d3e 361f c13d 6818 bb3d 248f a63e
000001e0: fa62 893e 2784 bc3e 0940 453e 7760 eb3e
000001f0: b254 7f3e 745b c43e 2e82 8a3e ec92 86be
00000200: 039e 383e 4a3a 3cbe cf36 063c b93c 91bd
00000210: bfb6 703e 1975 acbd 8c7e 933e d9e7 60bd
00000220: 953a 3bbf 8b3c 0cbf 301f 95be f2a8 94be
00000230: ab73 72be a4bb 2fbe 53ea 7bbe 739f 05be
00000240: b12c fabe 1efe 14bf f3df 493d f6d2 0e3d
00000250: d201 8b3e cee2 bf3e 45c6 833e 2c5a b53e
00000260: 2279 4abe 8b5f 21bf 9e85 a23d b5c9 87bc
00000270: 955a 393e 9ac8 c03e 6de1 ad3d bfcd 943e
00000280: ecae 633d 20e3 5cbf 4a0d 223e 2cf4 95be
00000290: 423e 0d3e 86f0 b2bc 4ce2 bd3d 22c5 023d
000002a0: 9030 c93c 7424 483e 4a2d 563f b83f 93bf
000002b0: 67dd 2b3f f069 09bf 9d00 123f c1ec ffbe
000002c0: e8de f63e e05c 05bf aada 833e c7ed 46be
000002d0: a8b9 ba3e 9bc0 63be e6cd d83e a972 debd
000002e0: 8fbb f13e fef4 0e3b 1249 e8bd dcb6 c7bd
000002f0: ff0b 0ebe a495 04be a589 53be 3031 39be
00000300: d119 c9bd ca34 13bd 6898 b2be 6c43 ca3c
00000310: 0621 0cbe 4b6d 03be bd9f 993e 2890 ebbd
00000320: 61c4 fa3e 15e2 dcbd a1c0 f4be 1a40 5f3e
00000330: f793 cbbe c3b1 543e aa18 dcbe 94b1 973e
00000340: 7c8c 8cbe caa7 bc3e 73ea 56be f030 c23d
00000350: bc05 753e 3287 0b3f de95 993d eeff 363e
00000360: ef9b b43d eefb 683e 1712 363e 60b6 873e
00000370: f324 1d3b 4ea5 2ebd 6d1e 523d 0762 ee3b
00000380: a46c 5a3d e562 4d3d 5394 183d d152 0dbc
00000390: a7ee 943d 4dca 05bd 4b6f 463c a7a5 103d
000003a0: 863b 04be 6757 143d 39c9 a6be 5606 bf3d
000003b0: e57a 1c3e 71fc 9c3c 7698 b83a cf90 573d
000003c0: 5e01 91be 7636 63be 7c13 1bbf ebf8 b6bf
000003d0: c068 723e efed 2f3d 2e16 8d3d 5b4c b43d
000003e0: bf8d 1fbe 48c2 d83d 84f9 22bf 714a 03bc
000003f0: e845 c7bd 6b10 34be 6810 1abe 5506 cbbe

sequential/dense_1/MatMul f4 [10, 20]
1.1323208 -0.20036569 0.06830521 1.4968716 0.19114295 -0.9727179 -0.6319862 -0.094881475
-0.26080483 1.1294959 -0.10215861 0.9090197 1.1260556 -0.08073234 0.10987637 -1.0442305
0.3440254 -0.2974594 -0.0027307363 -0.15668269 0.19480407 0.15654145 -0.9215162 -0.025470128
0.1950832 0.5542662 0.33981124 -1.1861904 0.03948946 0.23368013 -0.9833681 0.6737725
0.07747729 -0.08850367 0.73541266 0.46601215 0.46204746 0.030757349 0.383671 0.41296032
0.44434258 0.001968839 0.060671233 0.33686343 -0.002794902 0.90735286 -0.5782192 0.15356427
0.2674857 1.146484 0.1779424 0.94889605 1.0711217 -0.04250267 0.5163346 0.4459259
-0.55133003 -0.44272578 0.4079742 -0.48141742 0.8231225 0.20973505 0.1974465 0.38444453
0.5893279 0.38750416 1.4441476 0.6436377 0.51941085 0.75686294 0.0073849633 -0.19442894
0.12657255 1.4701507 0.7771443 0.95796865 -0.006697731 0.5688882 0.030244175 0.31995735
0.0783383 0.052514013 1.2340424 -0.037285853 0.6015267 -0.8016372 0.9682452 0.09643868
-0.84285927 -0.4969151 0.016246976 -0.6998388 -0.21208581 -0.18113866 1.1247832 1.0006334
0.9265165 0.19015038 1.304095 0.5566461 -0.6758186 0.6963302 0.11071903 -0.48731393
0.32071462 0.5394505 0.81696886 0.42418864 0.9187677 0.05822366 0.5858784 0.78833956
0.3225402 0.08563679 -0.1378272 0.61791456 0.6613193 0.75298077 -0.8533359 -0.18208447
0.618467 0.41205716 -0.20375283 -0.20148611 0.1037004 -0.14039384 0.021698909 0.68355614
-0.21286772 -0.58691245 -0.4103344 -1.0027705 -0.67637205 -0.12874943 -0.48448652 -0.1804821
-0.36591944 0.06695207 -0.4935995 1.1770183 0.31633288 1.2443473 0.39056435 0.19762142
0.19047026 0.64714026 0.2026784 0.64261866 0.19951561 0.16215937 0.21516787 0.48518822
0.32584223 0.81939477 0.008327581 0.6603528 0.740161 0.06998777 0.5686948 0.8816575
1.5081106 0.7499865 0.123857446 0.6120891 0.22832526 -0.337099 0.191239 0.518028
-0.29728925 0.14776613 0.7658941 -0.094578 0.06667474 -0.119149856 0.18024836 -0.33963025
0.059614677 0.58298516 0.5113771 0.8373645 0.32726 0.67183006 0.092631124 0.26935032
-0.97559196 0.6391574 0.22462808 0.056111 0.56702435 0.543963 0.84487164 -0.25254738
0.5206248 1.3354801 0.62146014 -0.3683727 -0.2235617 0.33387864 0.74955004 -0.27956903
00000000: e3ef 903f aa2c 4dbe 9ae3 8b3d 7d99 bf3f
00000010: faba 433e 0a04 79bf d9c9 21bf 3851 c2bd
00000020: 3688 85be 5293 903f 8938 d1bd 84b5 683f
00000030: 9722 903f ff56 a5bd dd06 e13d 58a9 85bf
00000040: 1924 b03e 994c 98be 27f6 32bb 6d71 20be
00000050: b87a 473e 674c 203e 7ce8 6bbf bba6 d0bc
00000060: e4c3 473e 64e4 0d3f bdfb ad3e 16d5 97bf
00000070: b3bf 213d d849 6f3e 03be 7bbf 5b7c 2c3f
00000080: 6aac 9e3d 6a41 b5bd 0144 3c3f 2599 ee3e
00000090: 7c91 ec3e d6f6 fb3c 8670 c43e 896f d33e
000000a0: df80 e33e a307 013b 6682 783d 5d79 ac3e
000000b0: ad2a 37bb 4748 683f 2c06 14bf f43f 1d3e
000000c0: e3f3 883e fdbf 923f 8836 363e daea 723f
000000d0: 841a 893f 4817 2ebd 812e 043f 6650 e43e
000000e0: f723 0dbf f4ac e2be ffe1 d03e 587c f6be
000000f0: 28b8 523f c9c4 563e 6a2f 4a3e ead5 c43e
00000100: 31de 163f f266 c63e d4d9 b83f 71c5 243f
00000110: 1cf8 043f c5c1 413f 90fd f13b 6118 47be
00000120: 3c9c 013e e62d bc3f eef2 463f 6f3d 753f
00000130: a478 dbbb a8a2 113f a2c2 f73c 73d1 a33e
00000140: d56f a03d ef18 573d 1af5 9d3f 0db9 18bd
00000150: a7fd 193f 1838 4dbf ebde 773f a581 c53d
00000160: a0c5 57bf a86b febe 6118 853c a328 33bf
00000170: 062d 59be 6a7c 39be e5f8 8f3f c114 803f
00000180: 2f30 6d3f c8b6 423e 96ec a63f 5c80 0e3f
00000190: 7302 2dbf b242 323f a9c0 e23d 3681 f9be
000001a0: b534 a43e 6e19 0a3f df24 513f 412f d93e
000001b0: 5c34 6b3f ef7b 6e3d 20fc 153f 9fd0 493f
000001c0: fd23 a53e 5762 af3d 9322 0dbe a62f 1e3f
000001d0: 394c 293f 59c3 403f 3974 5abf 5a74 3abe
000001e0: da53 1e3f 28f9 d23e 95a4 50be 6052 4ebe
000001f0: e060 d43d 67c3 0fbe e9c1 b13c 89fd 2e3f
00000200: fff9 59be e53f 16bf 5a17 d2be c95a 80bf
00000210: b826 2dbf e4d6 03be 9e0e f8be 4dd0 38be
00000220: cb59 bbbe 2b1e 893d 13b9 fcbe 89a8 963f
00000230: 62f6 a13e c646 9f3f 0df8 c73e 455d 4a3e
00000240: a30a 433e fcaa 253f ed8a 4f3e a882 243f
00000250: d24d 4c3e 1b0d 263e f754 5c3e 976a f83e
00000260: cbd4 a63e dbc3 513f 6870 083c e20c 293f
00000270: 317b 3d3f bf55 8f3d fb95 113f 4eb4 613f
00000280: c509 c13f 1eff 3f3f f9a8 fd3d dfb1 1c3f
00000290: 19ce 693e 3d98 acbe 28d4 433e 7c9d 043f
000002a0: 4c36 98be 0150 173e a311 443f 1cb2 c1bd
000002b0: c48c 883d d704 f4bd 0793 383e 04e4 adbe
000002c0: 852e 743d 843e 153f 9ce9 023f 855d 563f
000002d0: 9f8e a73e 0efd 2b3f 63b5 bd3d 49e8 893e
000002e0: 65c0 79bf d29f 233f e704 663e a6d4 653d
000002f0: 8228 113f 2941 0b3f 8249 583f e44d 81be
00000300: ab47 053f 03f1 aa3f 0318 1f3f 599b bcbe
00000310: 5ced 64be 24f2 aa3e 83e2 3f3f ac23 8fbe

sequential/dense_2/MatMul f4 [9, 10]
-0.29161513 -0.49219286 0.4145463 0.64643484 0.012549172 1.0466532 -0.66102195 0.62194556
-0.6442858 -0.17910148 -0.16709878 0.069833726 0.16438515 0.45580405 0.2619339 -0.15020324
-0.2139839 0.6858362 0.69829917 -0.11213738 0.5457414 -1.1801567 -1.067898 0.48433015
0.3937736 0.25720426 0.37629914 -1.2494609 0.4179065 -0.12773533 -0.17229892 0.98898065
0.9581921 -0.44030023 -0.114176616 -0.54384875 -1.0647125 -0.3869028 -1.6970118 0.45302212
1.0562015 -0.033301745 -0.91999644 -1.6727566 0.14552215 0.4551652 -1.7193713 -0.78262293
0.11239835 -2.173653 0.75196457 -0.7857068 0.6732749 -1.4223846 -0.19366509 -1.1597627
-1.3794864 -0.85435367 -0.4210699 -0.101316676 0.17331298 -1.5371948 -1.1969469 -0.08977857
-0.8529821 -1.3292601 -0.7874583 -0.6553677 0.056503218 1.5365144 -1.5412561 1.0624344
-1.2872949 -0.09932269 1.4727049 -0.62865496 -0.0015757572 -0.34781107 -0.24080184 -1.2087532
-2.0382903 0.46244255 -0.9766007 -0.91439664 -1.441879 0.74920386 1.2456019 -0.06654658
0.31135303 0.572475
00000000: 944e 95be b400 fcbe 6a3f d43e c17c 253f
00000010: 0b9b 4d3c bbf8 853f bc38 29bf d337 1f3f
00000020: eaef 24bf 6166 37be f11b 2bbe fc04 8f3d
00000030: 9554 283e 265f e93e 331c 863e e1ce 19be
00000040: 981e 5bbe f692 2f3f bcc3 323f 48a8 e5bd
00000050: b5b5 0b3f 600f 97bf e2b0 88bf 1ffa f73e
00000060: b19c c93e 47b0 833e 48aa c03e 56ee 9fbf
00000070: d7f7 d53e 0dcd 02be 216f 30be d62d 7d3f
00000080: 144c 753f 086f e1be 6ed5 e9bd ac39 0bbf
00000090: 8048 88bf 2018 c6be af37 d9bf 84f2 e73e
000000a0: 9c31 873f 6967 08bd e384 6bbf e31c d6bf
000000b0: c203 153e 6a0b e93e 5c14 dcbf fa59 48bf
000000c0: 1b31 e63d 211d 0bc0 c080 403f 1524 49bf
000000d0: be5b 2c3f b310 b6bf 2450 46be 1b73 94bf
000000e0: 0393 b0bf ecb6 5abf 7996 d7be 1e7f cfbd
000000f0: f578 313e cdc2 c4bf 8e35 99bf d4dd b7bd
00000100: 095d 5abf 3225 aabf de96 49bf 2dc6 27bf
00000110: eb6f 673d 81ac c43f e147 c5bf dafd 873f
00000120: 14c6 a4bf b269 cbbd 9881 bc3f 88ef 20bf
00000130: a389 ceba 4b14 b2be c294 76be 6db8 9abf
00000140: 5973 02c0 45c5 ec3e 8102 7abf e615 6abf
00000150: 7e8f b8bf d3cb 3f3f e26f 9f3f 9349 88bd
00000160: aa69 9f3e b98d 123f
