model/point_history_classifier/point_history_classifier.tflite (tflite, 6384 bytes, 6 tensors)

dense_2/bias f4 [6]
0	0xbea4246f	-0.32059047
1	0x3f8bc758	1.092021
2	0x3ea780be	0.3271541
3	0xbe66a27c	-0.2252292
4	0xbf34f77a	-0.7069012
5	0xbe052629	-0.13002838

dense_1/bias f4 [10]
0	0x3f0dbba4	0.5536444
1	0x3f561f31	0.83641344
2	0x3fea38b9	1.829856
3	0x3ebb9304	0.36635602
4	0x3e1c1698	0.15242994
5	0xbdbf355d	-0.0933635
6	0x3fd22f4b	1.6420683
7	0x3fc145c3	1.5099415
8	0xbe90196a	-0.2814439
9	0x4001e88c	2.0298185

dense/bias f4 [24]
0	0xbcd2d3b3	-0.025735712
1	0xbcf4b433	-0.029871082
2	0xbe349558	-0.17635095
3	0xbe303d07	-0.1721078
4	0xbd890cdf	-0.06691908
5	0xbe247537	-0.16060339
6	0x3d86d722	0.06584002
7	0xbdde9aa2	-0.108693376
8	0xbe17367f	-0.14766882
9	0xbe0fae83	-0.14031415
10	0xbe0d10bc	-0.13775915
11	0xbd9a9e74	-0.07549754
12	0xbdd7fa14	-0.105457455
13	0xbd7f11ba	-0.062272765
14	0xbd5896be	-0.052878134
15	0xbe21c75b	-0.15798704
16	0xbe4322ff	-0.19056319
17	0x3ea06a78	0.3133123
18	0xbde1ac7b	-0.11019226
19	0x3e5b1e33	0.21398239
20	0xbd0f4570	-0.03497833
21	0x3e943c4b	0.2895225
22	0xbcabaebd	-0.020957345
23	0xbe11f243	-0.14252572

sequential/dense/MatMul f4 [24, 32]
0	0x3ea5d236	0.3238694
1	0x3e573a18	0.21018255
2	0x3fb9c9ec	1.4514747
3	0xbf2ff837	-0.6873812
4	0x3edf45c7	0.43607923
5	0xbf47da0b	-0.7806708
6	0xbc904658	-0.017611668
7	0xbf09f881	-0.5389481
8	0x3f0e3399	0.5554748
9	0x3d782832	0.06058521
10	0x3eef49f2	0.46736103
11	0x3ec8fecc	0.39256895
12	0xbe0c8124	-0.13721138
13	0x3e8ffbdb	0.28121838
14	0xbaf6ce18	-0.0018829731
15	0x3ec95868	0.3932526
16	0x3e59c706	0.21267328
17	0x3e88abbf	0.26693532
18	0xbd7c79be	-0.06163954
19	0x3db93a94	0.09044376
20	0xbd6475cc	-0.055776402
21	0x3da88da4	0.08230141
22	0x3eb89be7	0.36056444
23	0x3bbeec50	0.0058265105
24	0x3dac2ede	0.08407377
25	0x3b94c509	0.00454009
26	0xbdc515f5	-0.096233286
27	0xbeb91f92	-0.361569
28	0x3f22c7c0	0.63586044
29	0xbf69cea9	-0.91330963
30	0x402b876a	2.68014
31	0xbf9901fc	-1.195373
32	0xbdc01db8	-0.093806684
33	0xbd3a1da0	-0.04543841
34	0x3f664304	0.8994601
35	0xbebf2a1b	-0.3733681
36	0x3f1b5ab6	0.6068529
37	0xbec1aef8	-0.37828803
38	0x3f539a83	0.8265764
39	0x3e2feeb1	0.17180897
40	0x3f1e8ab1	0.61930376
41	0x3ea8001e	0.3281259
42	0x3f4425a8	0.7661996
43	0x3f05419b	0.5205323
44	0x3f3b3ecd	0.731427
45	0x3ed86209	0.42262295
46	0x3f436c23	0.7633688
47	0x3f39b5ef	0.72543234
48	0x3f00a6af	0.5025434
49	0x3e94bfc7	0.29052565
50	0x3f33c638	0.7022433
51	0x3eb9751b	0.36222157
52	0x3f1a2c81	0.6022416
53	0x3e92d3b3	0.2867714
54	0x3ee40842	0.4453755
55	0xbdff6bc3	-0.12471726
56	0x3e42f690	0.19039369
57	0xbf1f3b1d	-0.62199575
58	0x3e1ecb93	0.15507345
59	0xbf8bfe97	-1.093707
60	0x3f560bd5	0.83611804
61	0xbfa8a5e2	-1.3175623
62	0x3f4bbfcf	0.7958955
63	0xc00efdda	-2.2342439
64	0x3c5f5440	0.013630927
65	0xbe76d989	-0.2410642
66	0x3fd77aa8	1.6834307
67	0xbd122e8c	-0.03568892
68	0x3ff6e390	1.9288197
69	0x3ece8961	0.40339187
70	0x3fd4347d	1.6578518
71	0x3eed9471	0.46402314
72	0x3f56ced3	0.8390934
73	0x3ecb81a1	0.39747337
74	0x3ebf4aec	0.37361848
75	0x3eef4687	0.46733496
76	0x3e83c412	0.25735527
77	0x3ee3efc3	0.4451886
78	0xbd9dff8f	-0.077147596
79	0x3f100fdd	0.56274205
80	0xbedd4e74	-0.43223917
81	0x3f034c9f	0.5128879
82	0xbf13bb61	-0.5770779
83	0x3f070401	0.52740484
84	0xbf1bfab2	-0.60929406
85	0x3f138bef	0.57635397
86	0xbf52b2a4	-0.82303834
87	0x3ea91729	0.33025482
88	0xbf52b947	-0.8231396
89	0x3e49e034	0.19714433
90	0xbf7ded6a	-0.9919039
91	0xbdf371d0	-0.118869424
92	0xbf3e1455	-0.74249774
93	0xbeabed67	-0.3357956
94	0xbf37c0c6	-0.71778524
95	0xbf304298	-0.68851614
96	0xbdc455e6	-0.09586696
97	0xbe8852e2	-0.26625735
98	0xbfb6501b	-1.4243196
99	0xc00412b8	-2.0636425
100	0xbfcf0ce0	-1.6175804
101	0xbfbc7c82	-1.4725497
102	0xbfb4bf6f	-1.4120921
103	0xbf453bc3	-0.77044314
104	0xbfb0379e	-1.3766973
105	0xbe48290c	-0.19546908
106	0xbf836348	-1.0264673
107	0x3e28de53	0.1649106
108	0xbf1e3c6a	-0.61810935
109	0x3eea31c7	0.45741102
110	0xbd9da5c3	-0.07697632
111	0x3f240dce	0.64083564
112	0x3ed4b2fb	0.415428
113	0x3f3afa16	0.7303785
114	0x3ea528ae	0.322576
115	0x3efeea23	0.49788007
116	0x3f37f4f9	0.71858174
117	0x3ee00dad	0.43760434
118	0x3f332c5a	0.6998955
119	0x3e94c89a	0.29059297
120	0x3ea619e6	0.32441634
121	0xbb861297	-0.0040915716
122	0x3e486daf	0.19573091
123	0xbe66a209	-0.22522749
124	0xbe101507	-0.14070521
125	0xbef82380	-0.48464584
126	0xbdc16bcb	-0.09444388
127	0xbeec1bf3	-0.46115074
128	0xbe8fe8ca	-0.2810729
129	0x3d97e59c	0.074168414
130	0x402214a6	2.5325103
131	0xbdb1645e	-0.08661722
132	0x3ffc6bbc	1.9720378
133	0xbe9195fc	-0.28434741
134	0x3fe92275	1.821364
135	0xbf224d98	-0.6339965
136	0x3f884d6e	1.064863
137	0xbf332a01	-0.6998597
138	0x3f2a2178	0.6645732
139	0xbf57ce9b	-0.8429963
140	0xbe020922	-0.12698796
141	0xbf2f0d8f	-0.68380064
142	0xbea4f9f9	-0.32221964
143	0xbefa5f2a	-0.4890073
144	0xbf31210f	-0.6919107
145	0xbe827343	-0.25478563
146	0xbf51426d	-0.8174198
147	0xbe271118	-0.16315114
148	0xbf8a7d98	-1.0819578
149	0xbe024489	-0.12721457
150	0xbf2d634b	-0.67729634
151	0x3de1704f	0.11007749
152	0xbf1fcdad	-0.6242321
153	0x3df79771	0.12089432
154	0xbecb5d1b	-0.3971947
155	0x3dbbcd84	0.09170058
156	0xbdb4cdc9	-0.08828313
157	0xbcba5036	-0.022743326
158	0x3d37b4d0	0.04485017
159	0xbdaa990f	-0.08329975
160	0x3e55f17c	0.208929
161	0xbe76157c	-0.24031633
162	0xbf0771d0	-0.5290804
163	0x3fb09b4c	1.3797393
164	0xbcd27ef0	-0.025695294
165	0x3f9bcda0	1.2172127
166	0xbe444cdc	-0.19169945
167	0x3f46f5ba	0.777187
168	0xbe52b071	-0.2057512
169	0x3f52bda7	0.82320637
170	0xbee958b9	-0.45575503
171	0x3ed911aa	0.4239629
172	0xbefe886a	-0.4971345
173	0x3e939ea0	0.2883196
174	0xbf1cca0e	-0.6124581
175	0x3e8e588a	0.27801925
176	0xbf707618	-0.93930197
177	0xbdd4057b	-0.10352608
178	0xbf471596	-0.7776731
179	0xbe215cf2	-0.15758112
180	0xbf5127f8	-0.8170161
181	0xbed100cb	-0.40820917
182	0xbed88b48	-0.42293763
183	0xbf0fd95d	-0.56191045
184	0xbe7effa0	-0.249022
185	0xbf22fbbb	-0.6366536
186	0x3dd56f26	0.104215905
187	0xbf2b4b63	-0.66911906
188	0x3ee735e3	0.451583
189	0xbf08c0a9	-0.53418976
190	0x3f345193	0.7043697
191	0xbea1fd51	-0.31638578
192	0x3e97a130	0.29615164
193	0xbd8dba4c	-0.06920299
194	0xbfc32683	-1.5246128
195	0x3ed3593c	0.41279018
196	0xbfaf7e38	-1.3710394
197	0x3eed6c82	0.46371847
198	0xbfb56800	-1.4172363
199	0x3f7e98cd	0.99451905
200	0xbfcd6dcb	-1.6049131
201	0x3e59a7e0	0.21255445
202	0xbfb68f82	-1.4262545
203	0xbbb5eddd	-0.005552037
204	0xbfd2d148	-1.6470118
205	0xbe7df5dc	-0.24800819
206	0xbfb1f745	-1.3903586
207	0xbebdf6e4	-0.37102425
208	0xbf3ba379	-0.73296314
209	0xbd34f467	-0.044178393
210	0xbf2e11ce	-0.6799592
211	0xbe80a7e2	-0.25128084
212	0xbee5b9c8	-0.44868302
213	0xbd78ded4	-0.06075938
214	0xbd214451	-0.039371792
215	0x3e8f5d47	0.28000852
216	0x3d39cf11	0.04536349
217	0x3f344b3c	0.704273
218	0x3ed76b3c	0.42074
219	0x3fa0c0ad	1.25588
220	0x3f866694	1.0500054
221	0x400e81e5	2.2266781
222	0x3f507104	0.8142245
223	0x4028000e	2.6250033
224	0x3dbbd72c	0.091719
225	0xbd38a5c0	-0.045079947
226	0xbe1db884	-0.15402418
227	0x3f944b11	1.1585408
228	0x3d110a6d	0.035410333
229	0x3f60d76b	0.878287
230	0x3e9af1f1	0.30262712
231	0x3f5632f0	0.83671474
232	0x3e111357	0.14167534
233	0x3f0c3738	0.5477176
234	0x3e2ddd9e	0.16979071
235	0x3ee5c6b0	0.4487815
236	0xbd8a8389	-0.067633696
237	0x3ea21b4e	0.31661457
238	0xbe263197	-0.16229855
239	0x3e7c02b5	0.24610408
240	0xbf324543	-0.69636935
241	0x3e43697d	0.1908321
242	0xbf3c95e7	-0.7366623
243	0x3e3ab1f0	0.1823194
244	0xbf65911e	-0.89674556
245	0x3dbf5bfd	0.09343717
246	0xbf394e42	-0.72385037
247	0xbbc8179e	-0.006106331
248	0xbf492d7d	-0.78585035
249	0xbe62c7bd	-0.22146507
250	0xbf4e8de6	-0.8068527
251	0xbf456507	-0.7710728
252	0xbe084687	-0.13308154
253	0xbf1e211e	-0.6176928
254	0xbe9d9c9c	-0.30783546
255	0xbf855d0a	-1.0419018

sequential/dense_1/MatMul f4 [10, 24]
0	0xc0d19ee3	-6.5506454
1	0xbf5a6fbe	-0.85326755
2	0xc09bc1f8	-4.867428
3	0xc08a403b	-4.3203406
4	0xc0c80e30	-6.251732
5	0xc0a1a6d0	-5.051613
6	0xbcfe2518	-0.031023547
7	0xc0b50ed5	-5.6580606
8	0xc0b2be6b	-5.5857444
9	0xc08ed599	-4.463574
10	0xc08a2e9f	-4.318191
11	0xc069d2f8	-3.6535015
12	0xc0a9cd7a	-5.3063326
13	0xc0700e21	-3.7508624
14	0xc0c3b363	-6.115648
15	0xc0901264	-4.502245
16	0xc0908f30	-4.517479
17	0x3f0e6b81	0.5563279
18	0xc08764e5	-4.231066
19	0x3ef4188e	0.47674984
20	0xc0bccfc3	-5.9003615
21	0x3f1057e6	0.5638412
22	0xc0ec7b3b	-7.390043
23	0xc09bcc27	-4.868671
24	0x3f1e3b6c	0.6180942
25	0x3f050eba	0.51975596
26	0x3f59b6ee	0.85044754
27	0x3edd2892	0.43195015
28	0x3ed84c5e	0.42245764
29	0x3db93c00	0.09044647
30	0x3f1b936f	0.6077184
31	0x3e87de51	0.265368
32	0x3f50eea8	0.8161416
33	0x3f646b20	0.8922596
34	0x3f0dd618	0.55404806
35	0x3f4a99f5	0.7914117
36	0x3f48a9eb	0.78384274
37	0x3f80aaab	1.0052084
38	0x3f468d80	0.7755966
39	0x3f2ce7c2	0.67541134
40	0x3f13db44	0.5775645
41	0xbcf51919	-0.029919194
42	0x3ece0d19	0.40244368
43	0x3ee1901a	0.44055253
44	0x3f5c5244	0.8606303
45	0x3ecda02e	0.4016127
46	0x3e76d356	0.24104056
47	0x3eeca0ca	0.46216422
48	0xbe94d8b3	-0.29071578
49	0x3f1174d1	0.5681887
50	0xbb8444f9	-0.0040365425
51	0xc023a269	-2.5567877
52	0xbf1d8bd8	-0.6154151
53	0x3d97b77e	0.07408045
54	0x3e9b2c65	0.30307308
55	0xbd66c2d3	-0.056338143
56	0xbf38ac20	-0.7213764
57	0x3e27e311	0.16395213
58	0xbd47f421	-0.048816804
59	0xbde55671	-0.11198128
60	0xbe80b21c	-0.25135887
61	0x3d09e65f	0.033666965
62	0xbf0cdbe0	-0.55023
63	0xbfa57541	-1.2926408
64	0xbc56f7bf	-0.013120591
65	0x3f4cde24	0.8002646
66	0xbfc359e8	-1.5261812
67	0x3f296ed1	0.6618472
68	0xbee86b5d	-0.45394412
69	0x3f4bf20c	0.7966621
70	0xbfbd2b3c	-1.4778819
71	0xc01480c8	-2.3203602
72	0x3e903353	0.28164157
73	0x3ea1887c	0.31549442
74	0x3ecefe5c	0.40428436
75	0xbe033091	-0.12811495
76	0x3e02fdf5	0.1279219
77	0x3ecaf2cd	0.39638367
78	0x3d38db0c	0.045130774
79	0x3ea63847	0.3246481
80	0x3ec5b416	0.38613957
81	0x3e8b230c	0.27175176
82	0x3f260635	0.6485322
83	0x3ef00a00	0.4688263
84	0xb95b171c	-0.00020894076
85	0x3f14d8c0	0.58143234
86	0x3e7e4a73	0.24833088
87	0xbe23350d	-0.15938206
88	0x3e579840	0.21054173
89	0x3e5ab3a2	0.21357587
90	0xbd0de9ff	-0.034646984
91	0x3ed895d8	0.42301822
92	0x3ed24916	0.41071385
93	0x3efc3ec9	0.4926665
94	0xbdbebed2	-0.0931374
95	0x3d422922	0.04740251
96	0x3e1c839f	0.15284584
97	0x3f17d8dd	0.5931528
98	0xbeef256d	-0.4670824
99	0x3cdd0402	0.02697945
100	0x3f19229a	0.5981842
101	0x3f1be29b	0.6089265
102	0xc03f555b	-2.9895847
103	0x3ee3b8ce	0.44476932
104	0xbe3fc4ad	-0.1872737
105	0xbf9d2ca7	-1.2279252
106	0x3f0b253b	0.54353684
107	0x3ebb6e8a	0.36607772
108	0xbef84065	-0.4848663
109	0xbeded200	-0.43519592
110	0x3e9fd505	0.31217209
111	0xbf0c60a1	-0.54834944
112	0xbfc23fc2	-1.5175707
113	0x3f4eb0ec	0.8073871
114	0x3f1aac92	0.6041957
115	0x3e2577bb	0.16158955
116	0x3f45880b	0.7716071
117	0x3f376790	0.716424
118	0xbe9d2c88	-0.30698037
119	0x3e6b1ded	0.22960635
120	0x3fbd8a6e	1.480787
121	0x3efae279	0.4900091
122	0x3f3f8529	0.7481256
123	0x3ed4001a	0.41406327
124	0x3ee47d57	0.44626877
125	0x3ee31de8	0.44358754
126	0x3f1ce446	0.6128582
127	0x3f518ed5	0.8185857
128	0x3e466a64	0.19376522
129	0x3fb4d561	1.4127618
130	0x3f0f49a9	0.5597177
131	0x3f4fc5a3	0.81160945
132	0x3f9bc59f	1.2169684
133	0x3fab45cd	1.3380677
134	0x3e95c7e5	0.2925407
135	0x3f5ee38a	0.8706595
136	0x3fd9050d	1.6954666
137	0x3e1fb267	0.15595399
138	0x3f9ab90d	1.2087723
139	0x3ee73c66	0.45163268
140	0x3f47bb96	0.7802061
141	0x3e35ea3b	0.17765133
142	0x3f705209	0.93875176
143	0x3f800289	1.0000774
144	0x3f1a2ade	0.6022166
145	0x3f09450b	0.53620976
146	0xbd8dd175	-0.069247164
147	0xbda35dd6	-0.07976882
148	0x3eed0791	0.46294835
149	0x3eff7a3f	0.49897954
150	0x3d507380	0.0508914
151	0x3f1a910d	0.6037758
152	0xbe9619d7	-0.2931659
153	0xbb82236e	-0.0039715087
154	0x3f54dddf	0.8315105
155	0x3f4d6019	0.8022476
156	0x3c880ede	0.016608652
157	0x3eaf5b60	0.342494
158	0xbb822b34	-0.0039724354
159	0x3d419781	0.047263626
160	0x3ef187ec	0.47174013
161	0x3f2b9563	0.6702482
162	0x3d4210c2	0.047379263
163	0x3ef3aa54	0.47590888
164	0x3f58ba25	0.84659034
165	0x3e735af3	0.23765163
166	0x3db5d9da	0.088794425
167	0xbd7a2b98	-0.06107673
168	0xbec23e64	-0.37938225
169	0x3d82283b	0.063553296
170	0xbfb168bd	-1.3860089
171	0xbe337a0f	-0.1752703
172	0x3cfe2579	0.031023728
173	0xbfdc2861	-1.7199823
174	0x3bb667e0	0.005566582
175	0xbf938fd8	-1.1528273
176	0xbe1d44a3	-0.15358214
177	0xbf0cf67d	-0.5506361
178	0xbfcce3ef	-1.600706
179	0xbfab7f15	-1.3398157
180	0xbde61478	-0.11234373
181	0xbf626006	-0.8842777
182	0xbe15283b	-0.14566128
183	0xbc261569	-0.0101369405
184	0xbfb822df	-1.4385642
185	0x3e388116	0.18017992
186	0x3e9d28bc	0.3069514
187	0x3edf2ef5	0.43590513
188	0xbcb4c065	-0.022064397
189	0x3ec383f5	0.38186613
190	0xbbf5baa8	-0.007499058
191	0x3e23b327	0.1598631
192	0x3f22a5b3	0.63534087
193	0x3f4a6855	0.7906545
194	0xbd983bdd	-0.07433293
195	0x3fc54b17	1.5413541
196	0x3f819f14	1.0126672
197	0xbd91dfac	-0.0712274
198	0x3f3992dc	0.72489715
199	0xbd51403a	-0.05108664
200	0xbee78e25	-0.45225635
201	0xbdbb56e3	-0.09147432
202	0xbe094e0d	-0.1340868
203	0xbdc2a130	-0.095034
204	0x3f73e5a2	0.95272267
205	0xbda08b3d	-0.078390576
206	0x3f8586a7	1.0431718
207	0x3ff6a83d	1.9270092
208	0xbdc98756	-0.098402664
209	0x3eccf030	0.40027
210	0x3f80df45	1.0068136
211	0x3ce03903	0.027370935
212	0x3f98ff34	1.1952882
213	0x3d7dbb93	0.061946463
214	0x3f5d32c2	0.86405575
215	0x3f36b3f6	0.7136835
216	0xbe1ed373	-0.15510349
217	0xbe2b65d8	-0.16738069
218	0xbe9bfff1	-0.30468705
219	0xc027255b	-2.611655
220	0xbedc64fc	-0.43045795
221	0xbf2582c0	-0.64652634
222	0xbe1bb8a2	-0.1520715
223	0xbe613f0e	-0.2199671
224	0xc003820d	-2.0548127
225	0xbe789db4	-0.24278909
226	0xbf617b2c	-0.8807857
227	0xbf048701	-0.517685
228	0xbdd12b9a	-0.102133945
229	0xbe8eca0a	-0.2788852
230	0xbe17acae	-0.14811966
231	0xbe9f7dd5	-0.3115069
232	0xbf1e23ef	-0.6177358
233	0xbe13a657	-0.14418922
234	0xbf5718d2	-0.8402225
235	0x3e629fd4	0.22131282
236	0xbf1a29dc	-0.6022012
237	0xbd7391e0	-0.05946529
238	0xbfa382c0	-1.2774277
239	0xc0287e79	-2.6327193

sequential/dense_2/MatMul f4 [6, 10]
0	0x4090fba3	4.5307174
1	0xc0209964	-2.5093622
2	0x3fa3e05e	1.2802846
3	0xbfb2a879	-1.3957664
4	0xc061e917	-3.5298517
5	0xc0688d57	-3.6336267
6	0xbfa9c15b	-1.3262132
7	0x3f0b571b	0.5442979
8	0xc0eba992	-7.3644495
9	0x3fc38921	1.5276223
10	0xc026e6dd	-2.6078408
11	0x3e9a9a35	0.30195776
12	0x3fb6285e	1.4231069
13	0xbd827d96	-0.0637161
14	0xbf74c94b	-0.9561965
15	0xba96df8c	-0.0011510714
16	0x3f149a57	0.58048004
17	0xbfb2780a	-1.3942883
18	0xc027fcfc	-2.624816
19	0xbf598c15	-0.84979373
20	0xc0106220	-2.255989
21	0x3f0e95af	0.5569715
22	0xbf7981c8	-0.97463655
23	0xbdf5cb5e	-0.1200168
24	0xbe83b628	-0.25724912
25	0xbe884805	-0.26617447
26	0x3ea545ee	0.32279915
27	0x4005ab9e	2.0885997
28	0x3f08e57b	0.5347516
29	0xbf62a1d9	-0.8852821
30	0xbff4d9c7	-1.912896
31	0x3eeff75c	0.46868408
32	0xbac6bfb4	-0.0015163333
33	0xbe9dc044	-0.3081075
34	0x3f58a8e1	0.8463269
35	0x3f257549	0.6463209
36	0xbf087327	-0.5330071
37	0xbf6cd655	-0.92514545
38	0x3ed22b2f	0.4104857
39	0x3fd2d153	1.6470131
40	0xbf8bb0f8	-1.0913382
41	0x3ccd1c02	0.02503777
42	0xbe6eac3a	-0.23307887
43	0x3f164a3a	0.5870701
44	0x3f03236c	0.51225924
45	0x3f2f214d	0.6841019
46	0xbf311f44	-0.6918833
47	0xbee38c52	-0.44442993
48	0x3ed93de4	0.4243003
49	0xbfd1fb1b	-1.6404756
50	0xbf77d873	-0.9681465
51	0xbed1c02b	-0.40966925
52	0xbdeba7ac	-0.1150659
53	0x3f8a0981	1.078415
54	0x3dcece94	0.100979954
55	0x3f41467c	0.75498176
56	0xbef69488	-0.48160195
57	0xbf0d5775	-0.55211574
58	0x3f3b4fab	0.7316844
59	0xbfc384ab	-1.5274862
